src/auto_aim/pico64_2023_5.onnx (onnx, 580503 bytes, 144 tensors)

conv2d_58.b_0 f4 [32]
-0.005259798 0.00062039396 0.00037978665 -0.011356778 0.0031654963 -0.01133359 -0.0054897694 -0.0063234223
-0.0001564919 -0.0027696479 -0.003103495 0.0005142361 -0.000101823425 -0.001451034 0.0035700118 0.00028140162
0.0012159989 -0.0094225425 -0.007897022 0.0024538047 0.0013270339 -0.008326783 0.0019876445 0.0030246107
-0.006420181 -0.0051666503 -0.0037172686 -0.00058941275 0.00010982813 0.0024868522 -0.010991732 -0.0037877443
00000000: 625a acbb efa1 223a 1a1e c739 c811 3abc
00000010: 3774 4f3b 86b0 39bc 86e3 b3bb b634 cfbb
00000020: f917 24b9 fb82 35bb 0264 4bbb cdcd 063a
00000030: 098a d5b8 9f30 beba dcf6 693b 1689 9339
00000040: 2762 9f3a 0261 1abc 8362 01bc 03d0 203b
00000050: deef ad3a 0f6d 08bc 2443 023b 8c38 463b
00000060: 6260 d2bb 014d a9bb 6b9d 73bb d282 1aba
00000070: 8753 e638 75fa 223b aa16 34bc ce3b 78bb

conv2d_58.w_0 f4 [32, 32, 1, 1]
-0.00629359 -0.0074417624 -0.0014378235 -0.0040243887 -0.0033207908 -0.005640565 -0.0057530375 -0.0056475
-0.0031997566 -0.0048642433 -0.0052260933 -0.004633621 -0.0055900426 -0.0066811396 -0.0029742557 -0.0014297162
-0.0023804817 -0.005488411 -0.005763942 -0.0036467663 -0.0029080643 -0.0054530236 -0.0045613237 -0.013716124
-0.00526622 -0.0054380354 -0.005281615 -0.0045343307 -0.0033495403 0.00010311928 -0.004972187 -0.004758642
-0.013253384 -0.025787361 -0.010285861 -0.0019684911 0.02628637 0.00215442 -0.000743859 -0.011082737
-0.0099269925 -0.006828737 -0.009542236 -0.019689882 -0.016465679 -0.016812302 0.027828783 -0.0074342815
-0.013773907 0.0056150006 -0.009599491 -0.014863888 -0.009253864 0.0019334726 -0.010698654 -0.0074441526
-0.014352477 -0.013757605 -0.013536385 -0.012614696 -0.010388749 0.005191761 0.005791462 -0.010356664
-0.00041339514 -0.0009834202 0.0003624718 -0.00043461268 6.711214e-05 -0.0005778626 0.00016187689 -0.00026772084
0.00017723134 -0.00033728895 -0.0006071989 -2.9411865e-06 -0.00035431713 -0.0008355877 -0.00014393119 -5.7770285e-05
0.00032477253 -0.00092171296 -0.00047569748 -0.00021827362 1.5354677e-05 -0.00036427964 -0.00012498247 -0.0015888741
-8.261214e-05 -0.0003401989 -0.00025185698 -4.9303635e-06 1.0670031e-05 -6.7694295e-05 -0.0006802075 -0.00026999557
-0.06793127 -0.07565287 -0.019169368 -0.0032121192 0.033343773 -0.06425185 -0.053065054 -0.0561274
-0.04303782 -0.049994305 -0.05197484 -0.05237578 -0.07186508 -0.07229992 0.05144432 -0.028330235
-0.019121626 -0.064033985 -0.059734277 -0.04053144 -0.049684417 -0.05678424 -0.06842477 -0.079513595
-0.06049807 -0.06771686 -0.05262144 -0.06624638 -0.057096213 0.008617341 -0.05724212 -0.047582157
-0.0011871108 0.0021640589 -0.000842015 0.0014067898 0.0027600208 0.0011676843 0.002123845 -0.0009779232
-0.00034333894 -0.0011223758 -0.00036948416 -0.000758409 -0.00014118013 0.00014387346 0.0022606067 -0.0007860616
-0.001054583 0.0011563434 -0.00062001124 -0.0009339303 -0.0012010715 0.0013525079 -0.00080352643 0.005795825
-0.0003413087 -0.0011535501 -0.0008988893 -0.0008698926 -0.0011233484 0.0002399591 -7.71544e-05 -0.0013049482
-0.021055566 -0.0013789189 -0.020631973 0.0005534679 0.004383963 -0.010557619 -0.0120395 -0.020981047
-0.020684043 -0.022213632 -0.015008086 -0.02133029 -0.018379183 -0.013193586 0.006868596 -0.009494263
-0.019672178 -0.010024906 -0.019687682 -0.023451183 -0.020107979 -0.015530757 -0.026115889 -0.009452035
-0.019590346 -0.0190174 -0.017851355 -0.023989651 -0.021511978 0.0034353263 -0.016174734 -0.021235172
-0.021325687 0.0033549883 -0.017922146 0.0050240415 0.013443394 -0.0043978016 0.0002558981 -0.0205348
-0.017610718 -0.020600643 -0.014626204 -0.022462063 -0.016587222 -0.011707296 0.011792219 -0.008848071
-0.020446375 -0.0009679866 -0.01792781 -0.02231303 -0.021490721 -0.0028944653 -0.023683349 0.016864011
-0.019757459 -0.021754157 -0.01996638 -0.023207229 -0.021732459 0.0025046386 -0.009429006 -0.020964924
-0.009165532 -0.006020699 -0.004496301 -0.003307469 -0.0039808108 -0.0073929136 -0.007996415 -0.008907049
-0.0062721926 -0.008469265 -0.0073456955 -0.007206263 -0.0076212827 -0.008318942 -0.0032036267 -0.0025320745
-0.005002125 -0.007381875 -0.008874448 -0.006401938 -0.0057426295 -0.008211548 -0.008141734 -0.013829944
-0.008489183 -0.008138598 -0.007906349 -0.007744009 -0.006265441 0.00032850273 -0.008051677 -0.008038893
00000000: 763a cebb 07da f3bb 5a75 bcba 05df 83bb
00000010: a0a1 59bb 7dd4 b8bb fa83 bcbb aa0e b9bb
00000020: 02b3 51bb 3b64 9fbb a63f abbb a1d5 97bb
00000030: ad2c b7bb 76ed dabb bbeb 42bb 5165 bbba
00000040: db01 1cbb 21d8 b3bb 73df bcbb 96fe 6ebb
00000050: 3995 3ebb 47af b2bb 2877 95bb 98b9 60bc
00000060: 4190 acbb 8c31 b2bb 6611 adbb b994 94bb
00000070: f683 5bbb be41 d838 baed a2bb 62ee 9bbb
00000080: b924 59bc 0440 d3bc 0786 28bc cd01 01bb
00000090: 8356 d73c 2b31 0d3b 88ff 42ba 5e94 35bc
000000a0: d3a4 22bc 99c3 dfbb 0a57 1cbc ad4c a1bc
000000b0: 08e3 86bc f4b9 89bc 30f9 e33c 469b f3bb
000000c0: f4ab 61bc 0afe b73b 2f47 1dbc aa87 73bc
000000d0: 859d 17bc 936c fd3a 6849 2fbc 14ee f3bb
000000e0: a726 6bbc 9467 61bc b7c7 5dbc dfad 4ebc
000000f0: 9235 2abc a61f aa3b 4ec6 bd3b ffae 29bc
00000100: f5bc d8b9 1be6 80ba 240a be39 badc e3b9
00000110: 8ebe 8c38 b47b 17ba 7fbd 2939 e25c 8cb9
00000120: 2dd7 3939 28d6 b0b9 6e2c 1fba 3361 45b6
00000130: a4c3 b9b9 570b 5bba 3cec 16b9 5f4e 72b8
00000140: 3b46 aa39 1c9f 71ba 0967 f9b9 61e0 64b9
00000150: ebcd 8037 c9fc beb9 ba0d 03b9 c541 d0ba
00000160: 0e40 adb8 b95c b2b9 ac0b 84b9 806f a5b6
00000170: 6f03 3337 19f7 8db8 f44f 32ba 318e 8db9
00000180: 8d1f 8bbd e4ef 9abd 1409 9dbc 6b82 52bb
00000190: 7b93 083d 7996 83bd be5a 59bd d8e5 65bd
000001a0: 6d48 30bd d4c6 4cbd 92e3 54bd fc87 56bd
000001b0: 002e 93bd fb11 94bd 47b7 523d cf14 e8bc
000001c0: f5a4 9cbc 4024 83bd eeab 74bd 4c04 26bd
000001d0: e381 4bbd 9796 68bd 4922 8cbd 06d8 a2bd
000001e0: d3cc 77bd 23af 8abd 9489 57bd 2fac 87bd
000001f0: b8dd 69bd bf2f 0d3c b776 6abd 82e5 42bd
00000200: d498 9bba e2d2 0d3b acba 5cba 0864 b83a
00000210: 77e1 343b fc0c 993a 3530 0b3b a82d 80ba
00000220: 2c02 b4b9 af1c 93ba 53b7 c1b9 f7cf 46ba
00000230: c109 14b9 bddc 1639 b026 143b b30f 4eba
00000240: ef39 8aba 7290 973a 4088 22ba 00d3 74ba
00000250: 466d 9dba a246 b13a bfa3 52ba e7ea bd3b
00000260: aef1 b2b9 b832 97ba 71a3 6bba 8109 64ba
00000270: 513d 93ba 889d 7b39 f4cd a1b8 cc0a abba
00000280: b97c acbc d7bc b4ba 6204 a9bc 9a16 113a
00000290: 59a7 8f3b ddf9 2cbc 5341 45bc 72e0 abbc
000002a0: 9571 a9bc 5df9 b5bc 7ae4 75bc dcbc aebc
000002b0: f18f 96bc e929 58bc f611 e13b d38d 1bbc
000002c0: 8c27 a1bc 813f 24bc 1048 a1bc b21c c0bc
000002d0: 7db9 a4bc b774 7ebc fdf0 d5bc b5dc 1abc
000002e0: ef7b a0bc 61ca 9bbc 013d 92bc f285 c4bc
000002f0: e339 b0bc 3623 613b e080 84bc 62f5 adbc
00000300: 35b3 aebc 5ddf 5b3b 77d1 92bc b7a0 a43b
00000310: ae41 5c3c 6f1b 90bb 102a 8639 9938 a8bc
00000320: 5a44 90bc aec2 a8bc bfa2 6fbc 5c02 b8bc
00000330: ede1 87bc f5cf 3fbc 2734 413c 80f7 10bc
00000340: 287f a7bc 7bc0 7dba 58dd 92bc d1c9 b6bc
00000350: 4f0d b0bc 12b1 3dbb 9503 c2bc 6526 8a3c
00000360: 65da a1bc c635 b2bc 8990 a3bc 161d bebc
00000370: 4508 b2bc dd24 243b 1e7c 1abc a2be abbc
00000380: 072b 16bc 4949 c5bb b555 93bb 1fc2 58bb
00000390: 7671 82bb 4140 f2bb 6503 03bc dfee 11bc
000003a0: f786 cdbb acc2 0abc 29b4 f0bb 8422 ecbb
000003b0: f4bb f9bb 2c4c 08bc f0f3 51bb 29f1 25bb
000003c0: dee8 a3bb a8e3 f1bb 2266 11bc 59c7 d1bb
000003d0: ab2c bcbb bb89 06bc e864 05bc fd96 62bc
000003e0: 3716 0bbc c157 05bc a289 01bc 75c1 fdbb
000003f0: 544e cdbb e43a ac39 2eeb 03bc 90b5 03bc

conv2d_64.b_0 f4 [32]
-0.021707583 0.028451325 0.008059424 0.0024242408 -0.009250537 -0.0069498266 0.008962937 0.011226375
-0.004577535 0.0016364424 0.024203885 0.0013169388 0.006978964 0.010541754 0.0045606415 0.00399838
0.0029400606 0.0061576716 -0.0023974872 0.00281156 -0.019136766 0.008868968 -0.0041554584 0.0066098445
-0.011808533 -0.0019255773 0.010758393 0.0164076 0.0060248342 -0.006042586 0.0059485114 -0.035692256
00000000: 1ad4 b1bc c112 e93c ad0b 043c 03e0 1e3b
00000010: 908f 17bc 5fbb e3bb 48d9 123c d4ee 373c
00000020: 26ff 95bb e57d d63a 3a47 c63c 229d ac3a
00000030: cbaf e43b 52b7 2c3c 6f71 953b d804 833b
00000040: 08ae 403b 4bc6 c93b 291f 1dbb 2642 383b
00000050: b5c4 9cbc 264f 113c 832a 88bb 6597 d83b
00000060: 9478 41bc a763 fcba f943 303c 3b69 863c
00000070: f96b c53b e300 c6bb bbeb c23b 0b32 12bd

conv2d_64.w_0 f4 [32, 32, 1, 1]
0.07811233 -0.03138075 -0.008860475 0.034715366 0.06816395 -0.055170145 -0.02874939 0.016677719
0.15821558 -0.11583434 -0.055673122 -0.008161883 -0.042222902 0.011291668 0.04422065 0.08165144
0.0031756829 -0.02493042 -0.04317299 0.029429352 -0.04186895 -0.042241532 0.107377745 -0.06049807
0.05014028 -0.06331891 0.065555885 0.029801937 -0.12947246 0.08634597 -0.025982967 0.06265398
0.02450195 -0.1475799 0.020897217 -0.0050998027 -0.1919917 -0.008688969 -0.042390566 0.029575083
0.019280529 0.12248647 0.0017052245 0.003633506 0.045638222 0.0063956105 0.021129202 0.038777534
0.011618715 0.020710925 -0.072634935 0.049628556 -0.05494515 -0.035516914 -0.029590463 0.07613722
0.0242132 -0.00921448 0.0068538277 0.028696375 0.09603312 0.045483 -0.06208948 0.010469208
0.09353682 0.023514608 -0.013162699 0.015997758 0.035087954 -0.007785808 0.06241687 0.0055138483
0.04717825 0.030882426 -0.1196921 0.20629889 0.05304642 -0.041924838 -0.06801492 -0.079304166
0.010418245 -0.03905595 -0.036205698 0.10605019 -0.13479054 -0.03105799 0.011112016 -0.11284415
-0.08411049 -0.15973 -0.016521446 -0.08425951 0.0290754 0.02481408 -0.10773221 0.06952069
-0.12416309 -0.010633136 -0.025849666 -0.067195244 0.07788835 -0.004111195 0.014980141 -0.035758596
-0.26281962 0.005650998 0.097896025 0.01982604 0.0008367693 0.02018931 -0.023319 -0.013350116
-0.091338575 0.03590763 -0.037770543 0.0233788 0.07736673 0.06626378 -0.00945009 0.018663995
-0.047774382 0.030556308 -0.071256384 0.08556016 0.02750671 0.0062419195 0.0054141073 -0.1723939
0.15540412 -0.1881914 -0.05163061 -0.074088015 -0.06302232 -0.031399384 -0.45626447 0.044290733
-0.050289314 0.046414454 -0.0024839204 0.08679958 -0.20883246 -0.036671426 -0.0030711675 0.016615037
-0.048407774 0.0107484935 0.057629183 -0.009124217 0.018857328 0.06380474 0.087434195 -0.06794041
-0.043918155 -0.05038246 -0.07468414 0.058691043 -0.0052285385 0.13714586 0.009111969 -0.01732974
0.022613943 -0.03996878 0.026662927 -0.09651748 0.012314239 -0.2000395 -0.047476318 0.054039374
0.00854378 -0.0425396 -0.056892153 -0.0043086633 -0.031976886 0.039000064 0.016435541 0.06387925
0.0029346684 -0.06525781 0.112203196 -0.03579348 -0.048598517 -0.005999278 -0.04040365 -0.106353655
-0.26058415 0.036298838 0.009879817 0.0016167474 0.00051204115 -0.0025516695 -0.005823219 -0.08060821
0.016854696 -0.04857543 0.06753057 -0.07285849 -0.23930968 -0.025424091 -0.08232209 0.060762767
0.047158606 0.052562065 -0.09599585 0.060833395 -0.013078108 0.045762435 -0.1313353 0.0008461019
0.13021757 -0.08884227 -0.03708436 0.005728166 -0.04350831 0.022251178 0.109781414 0.003728505
0.041328706 0.0799003 0.0112988595 -0.003381125 0.023464942 -0.049068764 0.015790261 0.018981086
-0.04966809 0.049152933 -0.11134625 -0.14251278 0.02242109 0.05427594 0.03508795 -0.05585942
-0.15026249 -0.01506863 -0.06693444 -0.005883597 -0.02774342 0.025424091 -0.02674793 0.011319519
-0.036345314 -0.17164873 0.053810213 -0.050773673 -0.07818643 0.061111454 -0.01361305 0.08683033
-0.06805218 0.07185252 -0.046019994 0.06600298 0.062286466 0.085153714 0.012620932 -0.07116393
00000000: 5bf9 9f3d 1a89 00bd 872b 11bc b331 0e3d
00000010: 8b99 8b3d 17fa 61bd d783 ebbc b69f 883c
00000020: 4403 223e 8e3a edbd 8009 64bd 6bb9 05bc
00000030: ecf1 2cbd b000 393c b620 353d df38 a73d
00000040: 1e1f 503b e13a ccbc 29d6 30bd d315 f13c
00000050: c77e 2bbd 7505 2dbd dde8 db3d d3cc 77bd
00000060: e55f 4d3d 58ad 81bd 2a42 863d 3123 f43c
00000070: 6e94 04be 28d6 b03d 3bda d4bc bb50 803d
00000080: 50b8 c83c 2f1f 17be a430 ab3c 3f1c a7bb
00000090: 7999 44be 2d5c 0ebc bba1 2dbd 7247 f23c
000000a0: 33f2 9d3c 30da fa3d d781 df3a 1d20 6e3b
000000b0: 25ef 3a3d 4592 d13b 2617 ad3c 31d5 1e3d
000000c0: 6c5c 3e3c f5a9 a93c a0c1 94bd 5047 4b3d
000000d0: 2a0e 61bd 2f7a 11bd b367 f2bc d5ed 9b3d
000000e0: c35a c63c 55f8 16bc 1396 e03b a914 eb3c
000000f0: 03ad c43d 624c 3a3d 8a51 7ebd 0a87 2b3c
00000100: 3b90 bf3d b5a1 c03c 5ca8 57bc bb0d 833c
00000110: 63b8 0f3d 1720 ffbb d5a8 7f3d 83ad b43b
00000120: fb3d 413d 24fd fc3c 2221 f5bd 0440 533e
00000130: 3447 593d 61b9 2bbd 684b 8bbd 396a a2bd
00000140: 49b1 2a3c 22f9 1fbd 6d4c 14bd d830 d93d
00000150: 8806 0abe 536d febc 2c0f 363c d51a e7bd
00000160: 1f42 acbd 4390 23be fc57 87bc 4090 acbd
00000170: 892f ee3c e646 cb3c b4a2 dcbd dd60 8e3d
00000180: 3849 febd 9b36 2ebc aec2 d3bc a99d 89bd
00000190: ed83 9f3d 34b7 86bb 446f 753c 9b77 12bd
000001a0: 4b90 86be 022c b93b b67d c83d 386a a23c
000001b0: a35a 5b3a 0d64 a53c 7d07 bfbc 72ba 5abc
000001c0: b80f bbbd e113 133d 49b5 1abd e684 bf3c
000001d0: 7372 9e3d 4eb5 873d 8dd4 1abc 3ce5 983c
000001e0: 12af 43bd 3951 fa3c deee 91bd 2a3a af3d
000001f0: c055 e13c 0489 cc3b d368 b13b 0788 30be
00000200: 4222 1f3e 3fb5 40be 9e7a 53bd 75bb 97bd
00000210: d911 81bd a49c 00bd 7f9b e9be 336a 353d
00000220: 2bfc 4dbd 151d 3e3d 45c9 22bb fac3 b13d
00000230: 2dd8 55be c734 16bd a445 49bb 421c 883c
00000240: 3b47 46bd 731a 303c 940c 6c3d bd7d 15bc
00000250: af7a 9a3c 0fac 823d b310 b33d 5724 8bbd
00000260: 86e3 33bd d75d 4ebd 00f4 98bd 0566 703d
00000270: 2954 abbb f76f 0c3e 5e4a 153c 19f7 8dbc
00000280: e040 b93c 4eb6 23bd 366c da3c f5aa c5bd
00000290: a9c1 493c 28d7 4cbe 8776 42bd 6458 5d3d
000002a0: 36fb 0b3c 013e 2ebd bf07 69bd b02f 8dbb
000002b0: 32fa 02bd 88be 1f3d d4a3 863c 20d3 823d
000002c0: 9153 403b e3a5 85bd caca e53d 2f9c 12bd
000002d0: 3d0f 47bd 9795 c4bb 4c7e 25bd f2cf d9bd
000002e0: 496b 85be 17ae 143d f5de 213c 0ae9 d33a
000002f0: 803a 063a e939 27bb b4d0 bebb eb15 a5bd
00000300: dc12 8a3c 08f7 46bd 784d 8a3d d536 95bd
00000310: 990d 75be 2f46 d0bc 7c98 a8bd 61e2 783d
00000320: 6229 413d 524b 573d 7999 c4bd 702c 793d
00000330: 9045 56bc 6471 3b3d c37c 06be f0cc 5d3a
00000340: c157 053e f0f2 b5bd c5e5 17bd 57b3 bb3b
00000350: c535 32bd 1a48 b63c 14d5 e03d ef59 743b
00000360: 4a48 293d c5a2 a33d da1e 393c dd95 5dbb
00000370: 8d39 c03c 54fc 48bd 945a 813c 397e 9b3c
00000380: c470 4bbd 9654 493d 8109 e4bd dfee 11be
00000390: 6fac b73c 7350 5e3d 62b8 0f3d d9cc 64bd
000003a0: 69de 19be 6ae2 76bc ec14 89bd 30cb c0bb
000003b0: 2b46 e3bc 2f46 d03c 7a1e dbbc 8175 393c
000003c0: d3de 14bd afc4 2fbe 1968 5c3d 0ef8 4fbd
000003d0: 3520 a0bd 0150 7a3d 4509 5fbc 1ad4 b13d
000003e0: f15e 8bbd 6a27 933d 767f 3cbd 922c 873d
000003f0: 1820 7f3d 1265 ae3d 07c8 4e3c 65be 91bd

conv2d_70.b_0 f4 [32]
0.012148792 -0.009231662 0.008660213 0.01684538 -0.002115637 0.0057055987 0.0027104705 0.03261028
0.011049397 0.007311469 -0.01291231 0.020096166 0.0110414205 0.0040925844 0.0031535607 0.0019566396
0.011510467 0.0048475927 0.012134543 0.027324261 -0.026563447 0.0033353039 0.0106675 0.005072942
-0.00073282357 0.015082601 0.030481897 -0.0023379875 0.006733263 0.012101943 0.02125117 0.008741152
00000000: ba0b 473c 6640 17bc 91e3 0d3c 53ff 893c
00000010: 80a6 0abb 08f6 ba3b 26a2 313b 5b92 053d
00000020: 8808 353c 0c95 ef3b 278e 53bc b7a0 a43c
00000030: 13e7 343c 161b 863b f8ab 4e3b f73a 003b
00000040: 6696 3c3c 8ed8 9e3b f6cf 463c 21d7 df3c
00000050: 969b d9bc 1d95 5a3b bdc6 2e3c ec3a a63b
00000060: f51a 40ba 041d 773c 2cb5 f93c ec38 19bb
00000070: b4a2 dc3b 3a47 463c ef16 ae3c 0c37 0f3c

conv2d_70.w_0 f4 [32, 32, 1, 1]
0.011547727 0.0052659926 0.027659588 0.028814593 0.016230622 0.0111332275 0.01659389 0.014481813
0.013247632 0.017171392 0.051071733 0.002745099 0.063842 0.00996651 0.013582957 0.00502637
0.02551724 0.0004244722 0.00936812 0.026448695 0.008823218 0.021744842 0.0075273295 0.01174799
0.019583862 0.013242977 0.028525842 0.023486665 0.014879129 0.03978249 -0.0021042572 -0.0030650727
-0.0004414899 0.09898254 0.019748589 -0.013546801 -0.0019484713 -0.034864403 0.01806559 -0.008078788
-0.014676486 0.051392883 -0.10605475 0.013141022 -0.07613722 -0.018010845 -0.09199838 0.06507152
-0.027669875 -0.00539068 0.033169154 -0.055895414 -0.04203661 -0.03420642 0.01939366 0.064102806
0.008626573 0.012364989 -0.029313793 -0.0059600538 -0.08038631 0.01988391 -0.040372733 -0.047942933
0.00468406 0.038571596 0.03965256 0.029084716 0.0023739964 -0.0020983287 0.018742455 0.05115307
0.02618789 0.033169154 0.0750987 0.0112496605 0.04129145 0.019276483 0.056362405 0.010089996
0.020003019 -0.00044562906 0.0019232174 0.008190257 -0.003411922 -0.0011689453 -3.9957802e-05 -0.003104256
0.022732185 -0.006687964 0.055747647 0.005999306 0.03432415 0.03116186 0.03469674 0.01270739
0.022274036 0.10925979 0.014304835 0.039782487 0.05657696 0.031811304 0.010369435 0.08634939
0.004981665 0.088693246 0.03247987 0.0050636283 0.061168715 0.001970571 -0.02349598 0.018663185
0.029603021 0.0040017683 0.01270739 0.04455154 0.03188348 0.045337502 0.042085692 0.031487294
0.04256323 -0.0028764526 0.039782487 0.05427594 -0.032722052 0.045725178 0.09194248 -0.025846448
-0.019602494 -0.10613011 -0.024874534 -0.027063457 -0.027035514 -0.016528688 -0.029783307 -0.04138459
-0.035684083 -0.04341803 -0.11433009 -0.00893965 -0.03300149 -0.023617405 -0.08138118 -0.039689343
-0.0021954654 -0.009591669 -0.02604817 -0.04216702 -0.060702994 -0.050065767 -0.021754157 -0.022322344
-0.057188056 -0.004411609 -0.054480866 -0.031096661 -0.065796 -0.08235935 -0.08232209 -0.041552257
-0.0027565276 0.035404645 -0.024054853 0.02983047 0.052487545 0.024352917 -0.025582442 0.08317484
-0.032423988 0.06378154 -0.14400311 0.009577696 0.04039725 -0.01757192 -0.07494496 -0.010579012
0.03139938 0.006083572 0.012416548 -0.011566356 0.032102242 0.035553675 0.033194225 0.025982965
0.016202677 -0.010789143 -0.010007346 0.04498001 -0.01764145 -0.07747852 0.027941063 -0.021329967
-0.0009894167 -0.004683298 0.004616588 -0.010355463 -0.018000342 -0.013284893 0.0073224083 0.012791484
0.008967592 -0.013111089 0.026856065 -0.007873132 -0.006900702 0.0049716635 0.03523698 0.02159581
-0.015080295 -0.0073409006 0.017639887 -0.005680776 0.02157718 -0.009206327 -0.018623771 0.01814942
-0.00055969314 0.00033950913 0.016593888 -0.013816139 0.026051108 0.014751935 -0.020245198 0.0043463903
-0.0040450892 -0.0946173 0.0107485205 0.0104428455 0.018437333 -0.029308263 0.040173702 -0.059398953
0.0042449585 -0.0058037206 -0.09150205 -0.0029224772 0.0053873444 0.009247099 -0.11346998 -0.0018886083
0.02888911 -0.0019692609 0.10158459 -0.04422 0.061820738 -0.0011182033 0.017209088 0.039987404
-0.04460743 0.13946913 -0.08232208 0.019459888 0.012737254 -0.0980078 -0.17395872 -0.05144432
00000000: ad32 3d3c 598e ac3b 5c96 e23c 950c ec3c
00000010: 15f6 843c 2468 363c e9ef 873c 2045 6d3c
00000020: 990c 593c 05ab 8c3c 9830 513d 1ee7 333b
00000030: 98bf 823d 934a 233c 0d8b 5e3c 3fb4 a43b
00000040: 8809 d13c b28b de39 be7c 193c efaa d83c
00000050: 428f 103c 3d22 b23c d1a7 f63b a47a 403c
00000060: 566e a03c 12f9 583c 07af e93c 1b67 c03c
00000070: 97c7 733c f7f2 223d 94e7 09bb 63df 48bb
00000080: c577 e7b9 5cb7 ca3d cbc7 a13c 67f3 5dbc
00000090: d963 ffba facd 0ebd 4afe 933c e55c 04bc
000000a0: a575 70bc 5881 523d 3c33 d9bd 714d 573c
000000b0: d5ed 9bbd 7b8b 93bc a669 bcbd 3844 853d
000000c0: efab e2bc 4da4 b0bb 61dc 073d 97f2 64bd
000000d0: 952e 2cbd 081c 0cbd 74df 9e3c 5548 833d
000000e0: 7856 0d3c 8696 4a3c 7b23 f0bc 8e4c c3bb
000000f0: 94a1 a4bd 95e3 a23c e15d 25bd cf5f 44bd
00000100: be7c 993b 40fd 1d3d b96a 223d 1243 ee3c
00000110: 0d95 1b3b 1d84 09bb c789 993c e285 513d
00000120: fc87 d63c 61dc 073d 59cd 993d 7f50 383c
00000130: 3921 293d b7e9 9d3c 44dc 663d 8350 253c
00000140: 5fdd a33c 52a3 e9b9 7814 fc3a 6d30 063c
00000150: 8d9a 5fbb 4c37 99ba 5d98 27b8 c670 4bbb
00000160: d938 ba3c b526 dbbb a557 643d d495 c43b
00000170: 7b97 0c3d 2847 ff3c 2b1e 0e3d a832 503c
00000180: 0a78 b63c 99c3 df3d d45e 6a3c f6f2 223d
00000190: 3ebd 673d 924c 023d 90e4 293c f3d7 b03d
000001a0: 3c3d a33b cea4 b53d 9d09 053d cbec a53b
000001b0: 0c8c 7a3d b224 013b a47a c0bc 89e3 983c
000001c0: 0982 f23c 4421 833b a832 503c ad7b 363d
000001d0: 4098 023d d1b3 393d 0c62 2c3d d2f8 003d
000001e0: c856 2e3d de82 3cbb f6f2 223d 7350 5e3d
000001f0: 8f07 06bd 534a 3b3d 574c bc3d eebb d3bc
00000200: 6995 a0bc be5a d9bd aec5 cbbc 2fb4 ddbc
00000210: 9579 ddbc 2c67 87bc 1ffc f3bc e382 29bd
00000220: 7929 12bd 1bd7 31bd e525 eabd 9c77 12bc
00000230: 922c 07bd 4a79 c1bc 2dab a6bd 4b91 22bd
00000240: cce1 0fbb 6026 1dbc f962 d5bc 53b7 2cbd
00000250: b4a3 78bd c311 4dbd c635 b2bc 59dd b6bc
00000260: 063e 6abd 428f 90bb 5427 5fbd 6dbe febc
00000270: 0ec0 86bd 05ac a8bd 7c98 a8bd b332 2abd
00000280: dca6 34bb 7604 113d af0e c5bc 085f f43c
00000290: 2efd 563d c57f c73c 4592 d1bc 9257 aa3d
000002a0: 04cf 04bd e59f 823d 8d75 13be c5eb 1c3c
000002b0: 9677 253d fdf2 8fbc be7c 99bd 9853 2dbc
000002c0: a39c 003d b358 c73b c76e 4b3c d080 3dbc
000002d0: a47d 033d bba0 113d abf6 073d 3ada d43c
000002e0: 7abb 843c f2c4 30bc daf5 23bc f53c 383d
000002f0: cd84 90bc 0fad 9ebd a8e4 e43c 2fbc aebc
00000300: 51af 81ba 5a76 99bb bf46 973b f6a9 29bc
00000310: 7475 93bc e1a8 59bc d0f0 ef3b 5f93 513c
00000320: cfec 123c e5cf 56bc 4001 dc3c 4ffe 00bc
00000330: 491f e2bb 56e9 a23b a754 103d b2e9 b03c
00000340: 5713 77bc f08b f0bb 8681 903c ce25 babb
00000350: a0c2 b03c 22d6 16bc e190 98bc 18ae 943c
00000360: 5fb8 12ba 2500 b239 e8ef 873c 165d 62bc
00000370: 2269 d53c 1ab2 713c 42d9 a5bc 2a6c 8e3b
00000380: ab8c 84bb b7c6 c1bd 901a 303c 7818 2b3c
00000390: e409 973c e217 f0bc 2e8d 243d 514c 73bd
000003a0: 4b19 8b3b 232d bebb 6d65 bbbd 0887 3fbb
000003b0: 5288 b03b 2581 173c f362 e8bd 2e8b f7ba
000003c0: dba8 ec3c b70e 01bb 950b d03d 0820 35bd
000003d0: be37 7d3d ad90 92ba 13fa 8c3c d5c9 233d
000003e0: 48b6 36bd ffd0 0e3e 7b98 a8bd 586a 9f3c
000003f0: eaaf 503c 50b8 c8bd 3c22 32be 47b7 52bd

conv2d_74.b_0 f4 [6]
-4.5820045 -4.5842543 -4.582871 -4.583028 -4.5825143 -4.5828047
00000000: c89f 92c0 36b2 92c0 e1a6 92c0 2aa8 92c0
00000010: f5a3 92c0 56a6 92c0

conv2d_74.w_0 f4 [6, 32, 1, 1]
-0.014663447 -0.022080166 -0.011561698 -0.061075576 -0.026169257 -0.011533755 -0.1723939 -0.02697031
-0.013643209 -0.0056225015 -0.009354148 -0.03404472 -0.033299554 -0.05625063 -0.026830591 -0.016538002
-0.0069591408 -0.0072425776 -0.08496743 -0.037044007 -0.007250221 -0.03512521 -0.029261691 -0.042204276
-0.012488497 -0.023440093 -0.100466855 -0.099051036 -0.13371985 -0.118462585 -0.054480866 -0.010290261
-0.01753466 -0.02643938 -0.024818646 -0.047737125 -0.035646822 -0.016836068 -0.16829549 -0.030966256
-0.029764678 -0.02049669 -0.031926304 -0.02633692 -0.033392698 -0.06879734 -0.020859959 0.0075506154
-0.012232346 0.0058210925 -0.09048165 -0.036261585 -0.008194486 -0.0138856815 -0.03400746 -0.046079133
-0.016975787 -0.030453956 -0.10050411 -0.08969922 -0.1223747 -0.1230826 -0.065518625 -0.02921512
-0.0028580562 -0.0010220308 -0.001350118 -0.042614114 -0.017665064 -0.027920395 -0.17053097 -0.030118631
-0.03920499 -0.029727422 -0.013867052 -0.020701611 -0.0581508 -0.06883461 -0.014919598 -0.0061371312
-0.03426827 -0.027631644 -0.07639803 -0.03529287 -0.018372972 -0.026104057 -0.04101201 -0.027678218
-0.021213913 -0.028395439 -0.10508687 -0.09070519 -0.13230401 -0.1155937 -0.0507923 -0.006672594
-0.022816015 -0.00952181 -0.026858537 -0.05032657 -0.029690163 -0.020869274 -0.16129093 -0.04060217
-0.045483 -0.024762759 -0.014402639 -0.01828914 -0.053679813 -0.06898364 -0.0050170557 0.0033146772
-0.021409519 -0.016053647 -0.07770207 -0.056604583 -0.027063457 -0.020478062 -0.024380863 -0.043620087
-0.0059620743 -0.030500527 -0.09789603 -0.10590655 -0.12932336 -0.1054222 -0.05882145 -0.017814098
-0.0035648525 -0.023980336 -0.0069870846 -0.055114258 -0.033783913 -0.025507923 -0.16628353 -0.013829794
-0.028041486 -0.028227776 -0.020021647 -0.004171759 -0.042614114 -0.05097859 -0.014612217 -0.01924854
-0.008296945 -0.017134136 -0.08060821 -0.042819038 -0.014239634 -0.025144657 -0.015613533 -0.035646822
-0.018419545 -0.030295609 -0.09826862 -0.093872145 -0.13983019 -0.11958033 -0.06645008 -0.021763472
-0.0042621377 0.0044209226 -0.0011259413 -0.05081093 -0.008841846 -0.022592468 -0.18707365 -0.029196491
-0.029066088 -0.027370837 -0.010518468 -0.0018989227 -0.033821173 -0.05496522 -0.01144061 -0.010825848
-0.040285476 -0.017031673 -0.072709456 -0.054108284 0.0016104565 -0.020012334 -0.02635555 -0.02012411
-0.017972445 -0.048854873 -0.097709745 -0.091748424 -0.13424145 -0.104565255 -0.06641282 -0.021763472
00000000: f43e 70bc 77e1 b4bc 476d 3dbc 622a 7abd
00000010: e960 d6bc 13f8 3cbc 0788 30be d7f0 dcbc
00000020: c487 5fbc f63c b8bb 2442 19bc 7a72 0bbd
00000030: 1d65 08bd 1067 66bd d4cb dbbc b47a 87bc
00000040: 8109 e4bb 2553 edbb 6703 aebd 75bb 17bd
00000050: 4393 edbb 74df 0fbd 37b6 efbc 64de 2cbd
00000060: 8e9c 4cbc 7005 c0bc 91c1 cdbd 45db cabd
00000070: dbed 08be 839c f2bd 5427 5fbd 7c98 28bc
00000080: d9a4 8fbc 6697 d8bc 7950 cbbc 0188 43bd
00000090: 6702 12bd cbeb 89bc a755 2cbe f2ac fdbc
000000a0: 0ed5 f3bc ade8 a7bc 28c5 02bd 86c0 d7bc
000000b0: c8c6 08bd 9fe5 8cbd 81e2 aabc 276b f73b
000000c0: 2e6a 48bc ddbe be3b 714e b9bd 0787 14bd
000000d0: 2a42 06bc c580 63bc 684b 0bbd 79bd 3cbd
000000e0: ce10 8bbc 937a f9bc 19d5 cdbd 3ab4 b7bd
000000f0: 969f fabd bb12 fcbd a12e 86bd 8c54 efbc
00000100: 3a4e 3bbb aaf5 85ba 71f6 b0ba 238c 2ebd
00000110: 53b6 90bc 50b9 e4bc ac9f 2ebe 59bb f6bc
00000120: 6995 20bd ec86 f3bc a232 63bc 6d96 a9bc
00000130: 892f 6ebd 29f9 8cbd 5471 74bc fd19 c9bb
00000140: e35c 0cbd c25b e2bc 9276 9cbd 428f 10bd
00000150: ea82 96bc 2dd8 d5bc 36fc 27bd 6ebd e2bc
00000160: cdc8 adbc 8d9d e8bc c937 d7bd a5c3 b9bd
00000170: b47a 07be 64bc ecbd 960b 50bd c7a5 dabb
00000180: a7e8 babc 5e01 1cbc 6f06 dcbc 3c23 4ebd
00000190: c938 f3bc 0af6 aabc 7329 25be 764e 26bd
000001a0: 624c 3abd 45db cabc 0cf9 6bbc 1bd3 95bc
000001b0: 5ddf 5bbd 4b47 8dbd 1d66 a4bb 0e3b 593b
000001c0: 0463 afbc f082 83bc 4322 9fbd 35da 67bd
000001d0: 2fb4 ddbc 9cc1 a7bc 60ba c7bc faaa 32bd
000001e0: 815d c3bb 3edc f9bc b77d c8bd 89e5 d8bd
000001f0: 586d 04be 98e7 d7bd c3ee 70bd dfee 91bc
00000200: 4da0 69bb 6972 c4bc eaf3 e4bb 7dbf 61bd
00000210: 0061 0abd fef5 d0bc 3b46 2abe 5c96 62bc
00000220: 42b7 e5bc f03d e7bc 7004 a4bc 40b3 88bb
00000230: 238c 2ebd edce 50bd 1568 6fbc 1daf 9dbc
00000240: e9ef 07bc e35c 8cbc eb15 a5bd 0463 2fbd
00000250: 5b4d 69bc 2bfc cdbc e7cf 7fbc 6702 12bd
00000260: 96e4 96bc 7f2e f8bc 0f41 c9bd 0a40 c0bd
00000270: a52f 0fbe 88e6 f4bd fb16 88bd 4f49 b2bc
00000280: 67a9 8bbb 63dd 903b 5294 93ba 1f1f 50bd
00000290: 64dd 10bc d713 b9bc 3c90 3fbe 7b2d efbc
000002a0: 011c eebc ce38 e0bc a755 2cbc 46e5 f8ba
000002b0: 1288 0abd 3623 61bd 6571 3bbc e65e 31bc
000002c0: 6202 25bd 0286 8bbc b2e8 94bd a6a0 5dbd
000002d0: f415 d33a e8f0 a3bc 98e7 d7bc 51db a4bc
000002e0: f33a 93bc 0c1c 48bd 0c1c c8bd 99e6 bbbd
000002f0: 9776 09be 4f26 d6bd 7203 88bd 4f49 b2bc

conv2d_75.b_0 f4 [20]
0.0 0.0 0.0 0.0 0.0 0.0 0.0 0.0
0.0 0.0 0.0 0.0 0.0 0.0 0.0 0.0
0.0 0.0 0.0 0.0
00000000: 0000 0000 0000 0000 0000 0000 0000 0000
00000010: 0000 0000 0000 0000 0000 0000 0000 0000
00000020: 0000 0000 0000 0000 0000 0000 0000 0000
00000030: 0000 0000 0000 0000 0000 0000 0000 0000
00000040: 0000 0000 0000 0000 0000 0000 0000 0000

conv2d_75.w_0 f4 [20, 32, 1, 1]
0.030295609 0.002179057 -0.0042136745 -0.0033619744 0.012954226 -0.010339254 -0.0031652846 -0.0049728113
-0.009917972 0.010448609 -0.012151773 0.004294002 0.009526468 -0.0010050994 -0.0020443993 0.009689473
0.013615559 0.008397763 -0.0009894746 -0.016129056 0.028432697 0.0029661055 -0.011715389 0.0061986083
-0.018941581 0.004823185 0.0038463313 0.0014520452 0.008336024 0.016857 -0.0027739927 0.0023798512
-0.030476788 -8.3181905e-05 4.9118036e-05 -0.0100389 -0.0021220166 -0.0061309114 -0.014106277 0.0025916493
-0.0037341826 0.0036833265 0.0031768475 -0.0007096076 0.016603205 -0.008833474 -0.0044108722 0.016087232
-0.016500745 -0.0014213438 0.010234922 -0.0041673183 -0.0056038727 0.0027771746 -0.0008201462 0.00911889
0.003782708 -0.014602903 0.011352121 -0.007218308 0.018520052 0.01953385 -0.0053640227 -0.008330179
-0.008031481 -0.019378945 -0.00018851613 0.0033497154 0.01266728 -0.0022835727 0.0027355968 -0.00042362997
0.005949849 0.0012952883 -0.009691226 -0.005048237 0.0108040245 0.0012825535 -0.0019292807 0.0014242545
-0.008237596 0.0071647987 -0.002655251 0.0021530967 -0.005392558 0.017164126 -0.009810561 0.004583154
-0.0021052344 -0.009199269 0.010614336 0.013342161 0.007942116 0.0060416567 0.012749305 0.0043901107
-0.008669527 -0.00215341 -0.0031966409 -0.0019220014 -0.022146007 0.002805599 0.019343302 -0.018915836
0.011180651 -0.005313827 0.0024130533 -0.002578108 0.0035703876 -0.0014927789 -0.008959277 -0.008737322
-0.0058902954 0.0015087011 -0.003816059 -0.021471385 0.009431305 -0.003639827 0.013178939 0.024716405
0.005751786 -0.006438291 0.0036392324 -0.0106702 -0.014969037 -0.0014409035 -0.008055369 0.009146114
0.011475501 0.0017130643 0.009313803 -0.0036787202 -0.019732898 0.024084164 0.012272049 0.0050384756
0.0012487316 -0.00205095 0.008352833 0.010071603 -0.00424254 -0.0013885774 0.0071966727 -0.005414246
-0.0063898927 0.0020742363 0.017596874 0.0040262532 0.0053830068 0.0009845129 0.01578482 -0.004272105
-0.012768736 -0.0022640205 0.0062209624 0.005516074 -0.007680052 0.004011083 0.013457575 0.0059089246
0.0020436293 0.0073069637 0.019583864 -0.0042689852 0.004060292 -0.006373213 -0.0010592402 -0.005184081
0.008123709 -0.013215033 0.011209713 -0.006094421 0.006733523 0.002644753 0.00038367207 0.010280947
0.008139824 -0.0030458919 0.005030096 -0.010399092 -0.005697463 -0.008952045 -0.017389128 0.0055746944
-0.009245071 0.01152779 0.0026125603 0.00997535 -0.01412134 0.0052273883 0.0071409526 -0.0046357727
0.005281235 -0.002856239 -0.0018132782 -0.0032408852 0.004348736 -0.013826108 -0.0027346676 -0.0185564
-0.007432429 -0.0035893263 0.009537643 0.008260372 0.005900293 -0.008492551 -0.00048811475 0.010018966
0.00874534 0.018428858 -0.014411953 0.012554517 -0.0066902097 0.0030767159 -0.004884323 0.0064468402
-0.007059685 -0.013704364 0.0017748727 -0.0018346774 -0.00523485 0.017585015 -0.0024049033 0.0002705361
-0.002672999 -0.00606364 0.004430599 0.0014242545 0.0064748963 0.004078613 0.016053708 -0.0072820373
-0.011380064 -0.0036584928 -0.0007906349 0.010981068 -0.0035031973 -0.012187951 -0.004941729 -0.009818811
-0.00015547313 -0.006845038 0.005067565 -0.0039132796 -0.0030348003 -0.007153065 0.0012422646 -0.00272551
-0.006805451 0.003685655 -0.00046116067 0.009763988 -0.0020777693 -0.001133378 0.00064123777 0.010348854
00000000: 7f2e f83c 83ce 0e3b dd12 8abb 9254 5cbb
00000010: f63d 543c f965 29bc aa70 4fbb f7f2 a2bb
00000020: fd7e 22bc a430 2b3c 3b18 47bc b3b4 8c3b
00000030: e714 1c3c 8abd 83ba 54fb 05bb 98c0 1e3c
00000040: cb13 5f3c c596 093c 42b1 81ba 1521 84bc
00000050: b0eb e83c fe62 423b e7f1 3fbc b21d cb3b
00000060: 602b 9bbc cf0b 9e3b bb12 7c3b 8d52 be3a
00000070: d293 083c b117 8a3c e0cb 35bb 47f7 1b3b
00000080: 75aa f9bc f271 aeb8 1704 4e38 337a 24bc
00000090: 8811 0bbb d0e5 c8bb 041e 67bc a9d8 293b
000000a0: 30b9 74bb f763 713b a832 503b f604 3aba
000000b0: 7203 883c 46ba 10bc 1489 90bb 5fc9 833c
000000c0: 922c 87bc 624c baba 60b0 273c 008e 88bb
000000d0: b1a0 b7bb 4201 363b 14ff 56ba 6667 153c
000000e0: 4fe7 773b 0441 6fbc 3ffe 393c 8e87 ecbb
000000f0: 5db7 973c 7405 a03c afc4 afbb 4e7b 08bc
00000100: 7996 03bc 98c0 9ebc 6aac 45b9 e686 5b3b
00000110: 6c8a 4f3c fea7 15bb b347 333b a71a deb9
00000120: f3f6 c23b aac6 a93a f3c7 1ebc ae6b a5bb
00000130: 5d03 313c 5b1b a83a ebdf fcba 0dae ba3a
00000140: fbf6 06bc b0c6 ea3b b803 2ebb f81a 0d3b
00000150: 0eb4 b0bb c89b 8c3c 7abc 20bc 482e 963b
00000160: f9f7 09bb 88b8 16bc c0e7 2d3c 1499 5a3c
00000170: a61f 023c 17f9 c53b 76e2 503c ebda 8f3b
00000180: a20a 0ebc 3a20 0dbb bc7e 51bb aaeb fbba
00000190: 8b6b b5bc 24de 373b d875 9e3c 62f5 9abc
000001a0: 0d2f 373c 9d1f aebb 5124 1e3b 7af5 28bb
000001b0: 2afd 693b 59a9 c3ba eec9 12bc fc26 0fbc
000001c0: 6103 c1bb 9cbf c53a d916 7abb c2e4 afbc
000001d0: c385 1a3c 2a8a 6ebb 7aec 573c 0f7a ca3c
000001e0: 7a79 bc3b 4df8 d2bb 3080 6e3b 10d2 2ebc
000001f0: b140 75bc b3dc bcba abfa 03bc 95d9 153c
00000200: bd03 3c3c e688 e03a ec98 183c af16 71bb
00000210: e3a6 a1bc 274c c53c b410 493c cc19 a53b
00000220: 7bac a33a 3b69 06bb 52da 083c 5d03 253c
00000230: 0105 8bbb ed00 b6ba 11d2 eb3b fd69 b1bb
00000240: 4e62 d1bb e9ef 073b 5227 903c a9ee 833b
00000250: ef63 b03b c50a 813a 2b4f 813c 04fd 8bbb
00000260: f633 51bc f65f 14bb 37d9 cb3b 2fc0 b43b
00000270: f2a8 fbbb 676f 833b 297d 5c3c a79f c13b
00000280: 69ee 053b 416f ef3b 576e a03c d8e2 8bbb
00000290: 330c 853b 63d6 d0bb 34d6 8aba 39df a9bb
000002a0: 4e19 053c de83 58bc f2a8 373c b5b3 c7bb
000002b0: e3a4 dc3b 9853 2d3b 9827 c939 6b71 283c
000002c0: e55c 053c 969d 47bb 81d3 a43b f460 2abc
000002d0: c9b1 babb 99ab 12bc a573 8ebc edab b63b
000002e0: a378 17bc 0edf 3c3c 7d37 2b3b a76f 233c
000002f0: 315d 67bc 834a ab3b a7fe e93b aee7 97bb
00000300: 360e ad3b bd2f 3bbb 85ab edba 0865 54bb
00000310: d77f 8e3b e686 62bc 1c38 33bb 9703 98bc
00000320: bc8b f3bb e73a 6bbb c643 1c3c 8356 073c
00000330: 3f57 c13b 5724 0bbc a7e9 ffb9 9726 243c
00000340: 9d48 0f3c 1ef8 963c 1d20 6cbc 76b1 4d3c
00000350: 8c39 dbbb baa2 493b ac0c a0bb 0440 d33b
00000360: ee54 e7bb 4588 60bc d8a2 e83a 8f79 f0ba
00000370: 1b89 abbb 730e 903c 959b 1dbb bed6 8d39
00000380: 7b2d 2fbb 80b1 c6bb 8f2e 913b 0dae ba3a
00000390: 5e2b d43b e3a5 853b 1183 833c 289e eebb
000003a0: 7373 3abc 53c3 6fbb 9c42 4fba f0e9 333c
000003b0: e695 65bb f9af 47bc 3aee a1bb 14df 20bc
000003c0: 8006 23b9 574c e0bb d10d a63b f83a 80bb
000003d0: 80e3 46bb 4264 eabb 7cd3 a23a 789e 32bb
000003e0: 4300 dfbb 088b 713b f0c7 f1b9 22f9 1f3c
000003f0: 2f2b 08bb db8d 94ba bd18 283a 3d8e 293c

conv2d_78.b_0 f4 [6]
-4.562235 -4.579828 -4.6042743 -4.5799417 -4.5742517 -4.5580244
00000000: d4fd 91c0 f38d 92c0 3756 93c0 e28e 92c0
00000010: 4560 92c0 56db 91c0

conv2d_78.w_0 f4 [6, 32, 1, 1]
-0.44329518 0.009394948 0.056120567 -0.42735207 -0.11840871 0.049717747 0.31662056 0.074886985
0.040064484 0.1151466 0.013145833 -0.45119733 -0.050636493 -0.0248396 0.061108172 -0.12149889
-0.037766106 -0.0066468176 -0.02848117 0.051723756 -0.16561289 0.005712903 0.34303167 -0.037230298
-0.06823847 -0.30514503 -0.04961027 0.043340646 0.016145488 0.15145476 0.01546647 -0.043293353
-0.27876619 -0.08099082 0.038052537 0.12760949 0.011023944 0.08903444 -0.3883054 0.03669005
-0.0189504 0.048149265 -0.041510902 0.053996503 -0.07412527 -0.055480406 0.029643588 -0.07641781
-0.010845908 -0.0022853531 -0.037021406 -0.02060688 0.3923293 -0.031975206 0.27078533 0.021502662
-0.03964426 -0.3353987 -0.041682657 -0.13178241 -0.0064943573 0.069231816 0.06935621 0.019613937
0.02333316 -0.1674758 0.024171958 -0.614463 -0.0016151126 0.0742743 0.1317824 0.018318726
0.011945743 0.12427487 -0.040658053 0.51490897 -0.087650016 -0.094821185 -0.0029974976 -0.06659064
-0.05294565 -0.05746141 0.040799316 -0.059591774 -0.27518937 0.0028664162 0.08429677 0.00806408
-0.06068436 0.1963882 -0.05061759 -0.11451321 -0.019096905 -0.049488842 0.024297029 0.03376699
0.31214952 -0.0984549 -0.030023197 0.47534066 0.0013598958 0.021154653 0.11302287 0.006727147
0.007180134 -0.0739745 -0.02263327 -0.39188218 -0.047830265 -0.07252317 -0.021435212 -0.05486941
-0.017263312 -0.08347709 0.03666394 -0.027866632 -0.17641777 -0.0036991823 0.15406282 -0.039670713
-0.03184871 -0.37876728 -0.06466168 -0.08141886 -0.01200414 -0.025551798 0.0248717 -0.022734232
-0.2298461 -0.072709456 0.0069543864 -0.041400284 -0.020620663 0.062315833 0.21702924 0.014588932
-0.008147717 0.10474066 -0.009135626 -0.29501078 -0.025947724 -0.045964625 0.021958882 -0.10036913
-0.019709576 -0.03153905 0.025962237 0.006351441 0.33286515 0.018919764 -0.42958754 -0.02137089
0.014410348 0.16456966 -0.052319888 -0.06641282 -0.02135363 -0.009387672 0.07259768 0.005721441
0.11402884 0.03534055 0.0760627 0.17798261 -0.13722211 0.1471328 -0.3576046 0.0670462
0.047912117 0.13439049 -0.015763054 0.13975565 -0.042574506 -0.0045341062 0.019892925 -0.056729846
-0.025701916 -0.021085849 0.04286164 0.025424093 -0.20279661 -0.02584946 -0.5086496 0.029578386
0.07317396 0.18975058 0.0020260655 -0.067567825 -0.024578849 0.052357145 0.11086011 0.04648897
00000000: 96f7 e2be 45ed 193c aede 653d e4cd dabe
00000010: 4480 f2bd d6a4 4b3d 171c a23e 595e 993d
00000020: a81a 243d fbd1 eb3d 9f61 573c 5603 e7be
00000030: 3668 4fbd 6b7c cbbc 904c 7a3d 69d4 f8bd
00000040: a2b0 1abd 8ccd d9bb 5851 e9bc 4adc 533d
00000050: 6d96 29be 4e33 bb3b d9a1 af3e cc7e 18bd
00000060: 9cc0 8bbd f83b 9cbe 2334 4bbd f685 313d
00000070: 8b43 843c f516 1b3e 1467 7d3c 5f54 31bd
00000080: 71ba 8ebe 84de a5bd fadc 1b3d 10ac 023e
00000090: c69d 343c b057 b63d f7cf c6be 4e48 163d
000000a0: df3d 9bbc 2a38 453d 5607 2abd 702b 5d3d
000000b0: fdce 97bd 6c3f 63bd 1cd7 f23c f180 9cbd
000000c0: 09b3 31bc ddc5 15bb c2a3 17bd c2cf a8bc
000000d0: 63df c83e 6ff8 02bd 60a4 8a3e 5a26 b03c
000000e0: 0562 22bd 61b9 abbe 6fbb 2abd f8f1 06be
000000f0: 9ece d4bb 69c9 8d3d a10a 8e3d 68ad a03c
00000100: 2f25 bf3c c77e 2bbe 4504 c63c 724d 1dbf
00000110: 30b2 d3ba 201d 983d f7f1 063e 2711 963c
00000120: 14b8 433c d383 fe3d 0f89 26bd 13d1 033f
00000130: da81 b3bd 9c31 c2bd aa71 44bb ac60 88bd
00000140: 8add 58bd a85c 6bbd 2f1d 273d 8116 74bd
00000150: 9fe5 8cbe 7cda 3b3b c9a3 ac3d 341f 043c
00000160: 2a90 78bd fd19 493e 6454 4fbd e785 eabd
00000170: 1d71 9cbc d0b4 4abd 900a c73c 414f 0a3d
00000180: 10d2 9f3e b9a2 c9bd 35f3 f5bc da5f f33e
00000190: 883e b23a 864c ad3c 8978 e73d 666f dc3b
000001a0: 5447 eb3b f17f 97bd 6869 b9bc c8a4 c8be
000001b0: abe9 43bd 0787 94bd e698 afbc bfbe 60bd
000001c0: ca6b 8dbc 09f6 aabd ed2c 163d 9048 e4bc
000001d0: dca6 34be fb6d 72bb a5c2 1d3e c27d 22bd
000001e0: cb73 02bd c9ed c1be 586d 84bd eebe a6bd
000001f0: 03ad 44bc 0152 d1bc bcbf cb3c 243d babc
00000200: c75c 6bbe b2e8 94bd 9fe1 e33b 5893 29bd
00000210: aaec a8bc e33e 7f3d ea3c 5e3e 6a06 6f3c
00000220: 017e 05bc 4582 d63d 98ad 15bc a70b 97be
00000230: 5290 d4bc 6745 3cbd 1de3 b33c 558e cdbd
00000240: fa75 a1bc 172f 01bd c2ae d43c c01f d03b
00000250: 4d6d aa3e 9ffd 9a3c e6f2 dbbe 0112 afbc
00000260: 6119 6c3c f384 283e 614d 56bd 7203 88bd
00000270: cfed aebc c0ce 19bc 18ae 943d ed7a bb3b
00000280: f487 e93d 41c1 103d c3c6 9b3d 1341 363e
00000290: f483 0cbe fba9 163e f317 b7be 854f 893d
000002a0: 7f3f 443d a99d 093e 8521 81bc 1b1c 0f3e
000002b0: 9b62 2ebd d792 94bb 7df6 a23c 8e5d 68bd
000002c0: d38c d2bc 3bbc acbc b08f 2f3d 3046 d03c
000002d0: eaa9 4fbe 3fc2 d3bc dc36 02bf 5f4e f23c
000002e0: 3bdc 953d fa4d 423e bdc7 043b 0061 8abd
000002f0: 9559 c9bc 7274 563d a00a e33d 386b 3e3d

conv2d_79.b_0 f4 [20]
-0.027836561 -0.017693006 0.008087367 0.013607144 0.02382199 -0.032088663 -0.02437155 -0.01926717
0.008813043 0.066919625 -0.028566187 -0.012475487 -0.010867764 0.022359602 0.029550444 -0.03126898
-0.022782173 -0.008708885 0.022304801 0.04046404
00000000: 8009 e4bc ecf0 90bc e080 043c 80f0 5e3c
00000010: 5526 c33c 676f 03bd d8a6 c7bc 2fd6 9dbc
00000020: 9564 103c 280d 893d a303 eabc fc65 4cbc
00000030: b50e 32bc 7c2b b73c c613 f23c e713 00bd
00000040: aea1 babc b6af 0ebc 8fb8 b63c 9fbd 253d

conv2d_79.w_0 f4 [20, 32, 1, 1]
-0.023505291 0.024380103 -0.038459823 -0.032497406 0.0018218468 -0.0713309 -0.037137154 -0.06346941
-0.02688756 -0.08142789 -0.04769986 -0.034305524 -0.02707277 -0.06808944 -0.054746564 0.0026229771
-0.051146254 -0.038403936 -0.052974366 -0.045557518 -0.022136053 -0.089997284 -0.08139063 -0.054089654
-0.009049649 -0.04442253 -0.013867051 -0.017181287 -0.0134059815 -0.09536247 -0.10914802 -0.056418292
-0.012647076 0.32094252 0.060319677 -0.007279111 0.020776127 0.035356663 -0.047791928 -0.059485763
-0.027957654 -0.06577943 -0.02539615 -0.016731512 0.10232976 -0.0747214 -0.015194377 -0.026004085
-0.027679391 -0.03203603 0.017609175 -0.060200002 -0.002988333 -0.13423614 -0.094473 0.03816176
-0.05574663 -0.0025395502 -0.011748656 0.0026156148 -0.010433632 -0.056460015 -0.23260263 -0.007781154
0.051462945 0.05774096 0.26237255 0.025562052 -0.004357453 -0.0076271053 0.037085246 -0.16278125
0.0030169834 0.08940115 0.03483731 0.035199728 -0.029141862 0.010920578 0.0074065244 0.023411553
0.04419759 0.02119349 -0.011130871 0.009550831 0.026243774 -0.25283444 0.0052915434 0.019855088
0.024248403 -0.0066102818 0.0038987612 0.023213204 0.0061139427 0.043038167 -0.010427386 0.02725881
0.004533907 -0.21170421 0.038865827 0.024632355 -0.010965788 0.0106894225 0.052133594 0.10579478
0.02158258 0.0912268 0.027855193 0.027806057 -0.25551704 0.069877826 0.021552872 0.03269629
0.029565193 0.054520927 0.015864277 0.045874212 0.010494783 0.07717752 0.07207607 -0.013316629
0.042494465 0.020302348 0.009096715 0.0051977113 0.022198835 0.03667361 0.26356483 0.015440218
-0.019495752 -0.19321525 -0.3377702 0.0041365125 0.0028620462 0.04823161 0.013957652 0.20272207
0.029854314 -0.018547656 0.00292643 0.00757623 0.16908066 0.074061416 0.03048206 -0.029127246
0.007781368 0.024293156 0.0398871 0.020403545 0.007681019 0.39680028 0.06764234 0.011803209
0.006830628 0.04138459 0.028018344 -0.025792938 -0.00017618467 0.032535758 0.095958605 0.018294279
-0.046209536 -0.038422566 -0.07539205 -0.07457238 -0.011785248 -0.09126406 -0.03739796 -0.05269247
-0.04633994 -0.08984825 -0.05882145 -0.0631341 -0.015727637 -0.07934143 -0.052282628 -0.0008665025
-0.07382721 -0.055375066 -0.009825568 -0.04550163 -0.04393678 -0.044123076 -0.049022533 -0.035982147
0.0054799733 -0.06163396 -0.005097121 -0.011726013 0.008323604 -0.07956498 -0.101472825 -0.0635812
-0.021777539 -0.014940006 -0.04281817 -0.061685923 -0.014756592 -0.09830587 -0.04913431 -0.04267
-0.06607749 0.02561623 -0.039181523 -0.04080709 -0.014717211 -0.06120598 -0.04892805 0.013577064
-0.060628474 -0.056697734 0.09275849 -0.007898924 0.001667166 -0.042010788 -0.05358666 0.005110923
0.0004019404 -0.057834107 -0.034808517 -0.014905782 0.0029694373 -0.07885707 -0.09756071 -0.06938958
0.024285268 0.021359984 -0.03658908 -0.044002004 0.020459432 -0.021835616 0.027024826 -0.022160104
-0.09130132 0.13647693 -0.026197203 -0.037342068 -0.023233945 -0.029913712 -0.023245918 0.03642925
-0.10570303 -0.117855206 0.39426672 0.019057622 0.0038364844 -0.025629014 0.0049327794 0.00534051
0.009510475 -0.05669773 -0.0021493 0.010115396 -0.016873328 -0.017276488 -0.023719527 -0.11149529
00000000: 2b8e c0bc c8b8 c73c 0c88 1dbd 001c 05bd
00000010: 09cb ee3a ef15 92bd 211d 18bd 40fc 81bd
00000020: 4d43 dcbc aac3 a6bd ee60 43bd f383 0cbd
00000030: b7c7 ddbc 7a72 8bbd ef3d 60bd 41e6 2b3b
00000040: bc7e 51bd 724d 1dbd a6fb 58bd 859a 3abd
00000050: ab56 b5bc 7f50 b8bd 21b0 a6bd 1d8d 5dbd
00000060: fb44 14bc 66f4 35bd a132 63bc c5bf 8cbc
00000070: c3a4 5bbc 664d c3bd ff88 dfbd de16 67bd
00000080: ae35 4fbc 9452 a43e c411 773d 9c85 eebb
00000090: b232 aa3c 26d2 103d 78c1 43bd 58a7 73bd
000000a0: 7307 e5bc 5eb7 86bd 960b d0bc 8610 89bc
000000b0: 4492 d13d 8907 99bd d6f1 78bc 8506 d5bc
000000c0: e4bf e2bc 3638 03bd 1e41 903c 4794 76bd
000000d0: e9d7 43bb 3375 09be 0f7b c1bd 814f 1c3d
000000e0: 9456 64bd 956e 26bb 6f7d 40bc bc6a 2b3b
000000f0: d3f1 2abc 9e42 67bd 622f 6ebe 0df9 febb
00000100: cfca 523d c981 6c3d b255 863e 8267 d13c
00000110: f7c8 8ebb ccec f9bb b3e6 173d 21b0 26be
00000120: 95b8 453b f317 b73d 91b1 0e3d 972d 103d
00000130: eaba eebc 39ec 323c 6eb2 f23b 96c9 bf3c
00000140: 8808 353d f89d ad3c 425e 36bc 177b 1c3c
00000150: 2ffd d63c 8473 81be af64 ad3b 23a7 a23c
00000160: 96a4 c63c 109b d8bb 5c82 7f3b 9e29 be3c
00000170: 7857 c83b ca48 303d a0d7 2abc de4d df3c
00000180: 2b91 943b fdc8 58be c631 1f3d cbc9 c93c
00000190: d9a9 33bc b022 2f3c 098a 553d efaa d83d
000001a0: f3cd b03c 1ed5 ba3d 9330 e43c 87c9 e33c
000001b0: 21d3 82be 1b1c 8f3d a68f b03c 8cec 053d
000001c0: b432 f23c 5651 5f3d cdf5 813c 99e6 3b3d
000001d0: 4ff2 2b3c 3f0f 9e3d 9e9c 933d fe2d 5abc
000001e0: ad0e 2e3d 1c51 a63c 630a 153c 9051 aa3b
000001f0: 55da b53c 1137 163d f8f1 863e f8f8 7c3c
00000200: 8eb5 9fbc 38da 45be 37f0 acbe 958b 873b
00000210: 2b91 3b3b 828e 453d a3ae 643c 6096 4f3e
00000220: 0991 f43c 41f1 97bc 59c9 3f3b 0642 f83b
00000230: 7b23 2d3e 83ad 973d 83b5 f93c 439c eebc
00000240: d9fa fe3b 7102 c73c a860 233d 5625 a73c
00000250: 0fb1 fb3b 6829 cb3e 1188 8a3d 3f62 413c
00000260: 76d3 df3b e382 293d ba86 e53c b64b d3bc
00000270: 36be 38b9 3744 053d f285 c43d e2dd 953c
00000280: 3646 3dbd fb60 1dbd 2667 9abd 67b9 98bd
00000290: ea16 41bc a7e8 babd 9a2e 19bd 0fd4 57bd
000002a0: f3ce 3dbd 5c02 b8bd c3ee 70bd 734c 81bd
000002b0: 3fd7 80bc c27d a2bd 4f26 56bd 0026 63ba
000002c0: b832 97bd f7d0 62bd 6bfb 20bc eb5f 3abd
000002d0: 0ef7 33bd 66ba 34bd dacb 48bd 0462 13bd
000002e0: 5991 b33b e473 7cbd c005 a7bb 771e 40bc
000002f0: ba5f 083c f7f2 a2bd fcd0 cfbd dc36 82bd
00000300: cf66 b2bc edc6 74bc 1b62 2fbd 61aa 7cbd
00000310: a2c5 71bc 9754 c9bd 0f41 49bd bdc6 2ebd
00000320: a353 87bd 21d9 d13c ce7c 20bd 5625 27bd
00000330: 7520 71bc 1fb3 7abd c768 48bd 5572 5e3c
00000340: 9055 78bd e23b 68bd 2af8 bd3d 7d6a 01bc
00000350: cf84 da3a 8113 2cbd b07d 5bbd 8879 a73b
00000360: 87bb d239 75e3 6cbd 6093 0ebd 6237 74bc
00000370: e49a 423b d17f a1bd e9cd c7bd 201c 8ebd
00000380: e6f1 c63c 22fb ae3c 6ede 15bd 723b 34bd
00000390: 8a9a a73c 9be0 b2bc 2b63 dd3c 1b89 b5bc
000003a0: 30fc babd 9cc0 0b3e 849b d6bc fff3 18bd
000003b0: 1d55 bebc 9a0d f5bc 396e bebc d636 153d
000003c0: d57a d8bd 125e f1bd 54dd c93e bb1e 9c3c
000003d0: 876d 7b3b f0f3 d1bc 27a3 a13b 72ff ae3b
000003e0: d3d1 1b3c e13b 68bd 45db 0cbb 0cbb 253c
000003f0: ef39 8abc 6c87 8dbc 744f c2bc a557 e4bd

conv2d_82.b_0 f4 [6]
-4.569947 -4.6033306 -4.5932 -4.592781 -4.6091022 -4.5854893
00000000: 013d 92c0 7c4e 93c0 7ffb 92c0 10f8 92c0
00000010: c47d 93c0 54bc 92c0

conv2d_82.w_0 f4 [6, 32, 1, 1]
0.07602544 -0.16479321 -0.0022237557 0.06976605 0.1285782 0.0048607355 -0.13483758 0.16740128
-0.16383395 0.3254135 -0.0005486948 0.032692105 0.24787909 -0.10734086 0.09323875 0.07364092
0.16039674 -0.006078915 0.113209166 -0.08586162 0.054555383 -0.16829549 0.2701223 0.024365133
0.0031833006 0.2334229 0.005383852 -0.19266237 -0.32284033 -0.30887082 0.1163016 -0.0889168
0.09446827 -0.14146952 0.014300179 -0.02465541 -0.004782604 0.0023468721 -0.124647446 0.09162727
-0.034738947 -0.009926945 0.10898109 -0.0030112634 0.054182798 -0.24273744 0.38519004 -0.15741608
0.06234835 0.0072903587 0.119979054 -0.02393151 0.0015488847 -0.049616113 0.045799695 0.034286898
0.23215611 -0.05404345 0.04563203 -0.15398832 0.06540794 0.35641232 0.038545996 -0.04462606
0.0627615 -0.15875737 0.010392721 -0.053382073 0.103315994 0.0015124407 0.1570435 0.1674758
-0.10898534 0.15407856 0.030379439 0.012288234 0.16993484 0.21936777 0.09402117 -0.12265107
0.10583204 0.021567866 0.39581358 0.06250036 0.028182587 -0.14817603 0.17621544 0.0007408857
-0.28264102 -0.013744319 -0.012354585 -0.3198901 0.15536979 0.21986087 0.13031821 -0.08265741
0.07956289 -0.17320989 0.021325184 -0.004328508 0.03889909 0.009549754 -0.12865272 0.09737441
0.2034047 0.0026748248 -0.11317944 -0.01990056 0.07780076 -0.2678868 -0.29000506 -0.102054544
0.08433404 0.007449457 0.36983213 -0.1586399 0.031517733 -0.14586602 0.09741168 0.011417323
0.16553837 -0.1585062 0.008812655 -0.21477689 -0.12875317 0.3731632 0.058150005 -0.09033261
0.07244865 -0.22148593 0.016379656 0.006696442 0.03456633 0.020245198 -0.14474829 0.2517912
0.28979462 0.30558997 0.01677536 -0.003923915 0.09487811 0.008801143 -0.16698796 -0.16962041
0.09297794 0.008277008 -0.033084154 -0.0066433046 -0.037656866 -0.12828013 0.08232208 0.017804783
0.30678436 0.0799568 -0.0069707846 -0.43018368 0.15932052 -0.076121345 0.042371932 -0.08634598
0.05628789 -0.07911787 0.009149226 0.040259548 0.004223397 0.038776513 0.03366116 0.14288536
-0.16329719 -0.21248634 0.02153163 -0.0148683665 0.0887952 -0.29173204 -0.13558275 -0.09227003
0.095623285 0.008809245 0.08675581 -0.1990708 0.021684598 -0.0903404 0.030025488 -0.006825517
-0.10437896 -0.13884723 -0.0015366148 -0.42258298 0.5933003 0.05841679 0.01920532 -0.10020605
00000000: 3ab3 9b3d 8dbf 28be 6ebc 11bb 81e1 8e3d
00000010: 01aa 033e ce46 9f3b dd12 0abe 3e6b 2b3e
00000020: 16c4 27be 999c a63e 49d6 0fba 28e8 053d
00000030: 04d4 7d3e 86d5 dbbd f5f3 be3d 0dd1 963d
00000040: 0b3f 243e a331 c7bb 35da e73d 38d8 afbd
00000050: 7775 5f3d a755 2cbe 784d 8a3e 6399 c73c
00000060: ec9e 503b 6a06 6f3e 066b b03b 4949 45be
00000070: 544b a5be 5124 9ebe 892f ee3d 031a b6bd
00000080: 9578 c13d 63dd 10be 4c4b 6a3c 24fa c9bc
00000090: 64b7 9cbb fbcd 193b 2947 ffbd 14a7 bb3d
000000a0: 6d4a 0ebd a0a4 22bc 7a31 df3d 9e58 45bb
000000b0: c8ee 5d3d 2a90 78be a137 c53e ae31 21be
000000c0: fc60 7f3d f6e3 ee3b 94b7 f53d 040c c4bc
000000d0: f203 cb3a 443a 4bbd 7698 3b3d 6b70 0c3d
000000e0: 55ba 6d3e aa5c 5dbd a7e8 3a3d 1daf 1dbe
000000f0: 99f4 853d ad7b b63e 68e2 1d3d d1c9 36bd
00000100: 1a89 803d 4b91 22be 3b46 2a3c 29a7 5abd
00000110: 5697 d33d 173d c63a 03d0 203e c77e 2b3e
00000120: b533 dfbd c5c6 1d3e 4dde f83c 9754 493c
00000130: 6603 2e3e f2a1 603e 2c8e c03d 7c30 fbbd
00000140: 78be d83d 18af b03c 14a8 ca3e 3000 803d
00000150: 2bdf e63c 75bb 17be d271 343e ff37 423a
00000160: 53b6 90be da2f 61bc e36a 4abc a3c8 a3be
00000170: 4219 1f3e 3523 613e 2372 053e 4a48 a9bd
00000180: def1 a23d ef5d 31be 27b2 ae3c 28d6 8dbb
00000190: a754 1f3d 9276 1c3c 8abd 03be 3c6c c73d
000001a0: 5249 503e 1d4c 2f3b 9fca e7bd 8006 a3bc
000001b0: 0156 9f3d 7528 89be 8b7b 94be f901 d1bd
000001c0: 53b7 ac3d 931a f43b a35a bd3e 7f72 22be
000001d0: bd18 013d e75d 15be c67f c73d b90f 3b3c
000001e0: e482 293e 734f 22be f462 103c 79ee 5bbe
000001f0: dfd7 03be 3f0f bf3e b32e 6e3d 4e00 b9bd
00000200: f55f 943d 35cd 62be a12e 863c d46d db3b
00000210: 6d95 0d3d 42d9 a53c e538 14be c7ea 803e
00000220: f65f 943e 4a76 9c3e 7b6c 893c 2f94 80bb
00000230: 744f c23d ab32 103c e4fe 2abe f9b0 2dbe
00000240: 386b be3d 4a9c 073c 4083 07bd 14b0 d9bb
00000250: 163e 1abd de5b 03be 7b98 a83d 56db 913c
00000260: d712 9d3e 64c0 a33d 2e6b e4bb 0941 dcbe
00000270: eb24 233e 82e5 9bbd 318e 2d3d 29d6 b0bd
00000280: 218e 663d 8d08 a2bd a3e6 153c 32e7 243d
00000290: 6c64 8a3b 1fd4 1e3d 49e0 093d 8a50 123e
000002a0: 6137 27be 0596 59be 1a63 b03c 739a 73bc
000002b0: 42da b53d e75d 95be 34d6 0abe 12f8 bcbd
000002c0: 24d6 c33d a754 103c 08ad b13d 37d9 4bbe
000002d0: e6a3 b13c 6304 b9bd 03f8 f53c 96a8 dfbb
000002e0: a3c4 d5bd f82d 0ebe 3d68 c9ba cc5c d8be
000002f0: 87e2 173f 7246 6f3d 7a54 9d3c d438 cdbd
